best_model_ram_shift.pth (torch, 139359 bytes, 4 tensors)

fc1.weight f4 [128, 256]
00000000: d60e b201 a487 1180 594e 1300 6319 0880
00000010: e7f4 0800 b7b0 1700 fd8e 1680 b7e8 0000
00000020: 6f43 0300 9867 ed01 a649 1800 3c51 1500
00000030: 2a01 0080 8b2b 0300 3496 1100 ab8a 1600
00000040: 3d2f 1580 cbb4 0880 8bdd 0400 ec67 5301
00000050: 07ff 0680 dc5d 433b 2dac 8cbc 9146 2e3c
00000060: dec3 a8bc b179 b9bc 219c ba3a c7fe 87b0
00000070: 0ac7 ee3b 49dd d03a 1dd9 bf81 8a26 0680
00000080: 7c51 0300 bee2 0300 9846 bc81 d53f 083c
00000090: 2614 b0bc 49d5 c4bd 36d1 9e3d 4b51 c33a
000000a0: e4e9 56bc 5c64 a8bd e7ea 653e 3cb9 993e
000000b0: e82c 883d 5ffe 423d 14d7 0801 7815 0f00
000000c0: 768e 0980 a2e0 0680 d2ac 553b 1a5e ff3c
000000d0: 8371 7b3d da1f 173e 6d73 ccbd 2bf5 b6bc
000000e0: b0f6 bd3c b727 a73e 3589 0f3f a7f9 a73e
000000f0: 66de 0a3e bfe5 d4bc 088c fabb 93a2 0a80
00000100: 092c 0780 1312 fbbb 3ebd 1fbd 21b3 f9bd
00000110: 9ae1 b63c 1f80 a23c 21ec 8dbd 4d3b 4abd
00000120: 0806 343d eacf 9abd 2329 70be f0ca 15bf
00000130: 7527 13bf 5232 6abe b67b 3ebb 4de1 0900
00000140: c44d 0a00 ec64 833b 74f6 e3bd ebcc 96be
00000150: 9e9d 4bbe 855d 123e 35fc c33d 3a1b d6bd
00000160: 98ac 8abe 5605 eabe 5479 31bf 0562 16bf
00000170: ed43 e9be ba6d 073c cf43 583c a11d 1080
00000180: 9dda a201 5eab 8d3a 3ba7 a0bd 6b26 03be
00000190: 18fc 6d3e e4d0 70bd b58b 153e 82be 8e3e
000001a0: ebdf 3a3e 889b 0c3f 0d31 3f3f 5235 de3e
000001b0: 6d3e 843e 7664 883e 5971 123d 3bcd 1800
000001c0: 510d 0f80 9f72 073b c60d 97bd cf76 02bd
000001d0: 35f7 a93e 6403 47bb 0eb6 8d3d 9c84 89be
000001e0: d4ca 44be 0cc5 b83d 31dd 1e3e 05cb 163c
000001f0: bf5a 203e 5a23 0a3e 7878 43bc a4a2 1481
00000200: 1031 0080 3ed5 1080 a2f2 35bd cd8c b1bd
00000210: 468e e63d 74ad 383d 022d 59bd 5c20 9abd
00000220: 6995 39be 7e13 d0be 2de8 9dbd 170e f33c
00000230: eb24 003c 6cc7 6f3e 1f0e 053d 899a 0c80
00000240: e77a 0500 168c 0f80 a042 c2bd bd90 32bc
00000250: 7a8e d83d 0c20 5c3e 2537 8dbd b7da 40be
00000260: 0db2 693c 624f 99be 4fb1 f3bd 5525 12bd
00000270: aac3 d83c 8756 db3d 25a5 1bbd 67e1 1900
00000280: 64d1 cd81 46f2 23bd 32df dc3b 15aa 243e
00000290: 3443 023b 5280 333e 60ba 95bd 7a59 dcbd
000002a0: 4500 2dbd b430 96bd 4721 afbe dd3e 863e
000002b0: 041e 3bbc eae5 583e c77b b9bc 00b1 1900
000002c0: 79e4 1980 9876 7301 915d 1e3d a4e7 00be
000002d0: 9a0d cc3c 4a57 823e 630a 14bd e5f9 dcbd
000002e0: 800c 41be 4131 8b3d 8969 efbd ffc2 c7bd
000002f0: 0732 d7bc 9d03 18bd 8d34 bdbc 7f60 0880
00000300: 20c8 4c01 ec3c f13a 6def 57bd 0790 22bd
00000310: 8f59 21bd 12f5 92bd 65c9 17be 2049 d6bd
00000320: 1b9e 113e 66fe 143e a483 0c3c 82ef 5abe
00000330: f4f5 223d e8bf c7bd a5e7 8a3d 26a7 0500
00000340: 06f4 1380 6648 0a00 fa5f c7bb 8ae2 8cbc
00000350: 2996 a0be a639 f2bd cfa9 be3d af2c dd3e
00000360: 3389 1f3d a03b d0be ec35 cc3c 4836 363c
00000370: f190 f0bd fa64 fabb 6c24 0a00 360b 0e00
00000380: f0a0 9e81 e616 bb01 2820 7b81 f1f3 0300
00000390: 1812 e53c e9ec 8fbd 7ebd 403d 2cd1 133e
000003a0: 0df8 153e 49ea b73d 20b4 2bbc 9f3f 933b
000003b0: 15cc 08bc c726 2300 5840 0a00 f841 1800
000003c0: ecf5 f801 4651 1200 7020 fa80 1cae 8801
000003d0: 343c 0380 9cd4 f2bb e2ae 12bc 2372 41b9
000003e0: b1bb 38bc 4671 90bb c667 25ba 9a20 0180
000003f0: 1e22 0580 ce0a 0700 d81b e680 abb7 0a80
6.540816e-38 -1.609862e-39 1.77298e-39 -7.43791e-40 8.22538e-40 2.17561e-39 -2.071675e-39 8.3482e-41
2.99697e-40 8.72087e-38 2.230472e-39 1.957687e-39 -4.18e-43 2.91127e-40 1.615086e-39 2.070126e-39
-1.945491e-39 -7.9954e-40 4.46817e-40 3.882914e-38 -6.425e-40 0.0029810583 -0.017171944 0.0106369415
-0.02060121 -0.022641035 0.0014237204 -9.894955e-10 0.007286911 0.0015935089 -7.047386e-38 -5.64838e-40
3.04738e-40 3.56846e-40 -6.916159e-38 0.008316 -0.021493983 -0.096109934 0.077547476 0.0014901547
-0.013117287 -0.08222267 0.2245289 0.30024135 0.0664919 0.04760587 2.5133566e-38 1.385234e-39
-8.77625e-40 -6.31596e-40 0.003260423 0.0311728 0.06138755 0.14758244 -0.09982953 -0.022333702
0.023188919 0.32647488 0.56068736 0.32807657 0.13561401 -0.025988458 -0.0076460876 -9.76676e-40
-6.58645e-40 -0.0076620667 -0.038998835 -0.12192369 0.022324372 0.019836484 -0.06929804 -0.04937296
0.043951064 -0.07559188 -0.23453192 -0.58512783 -0.5748208 -0.22870758 -0.0029065437 9.07342e-40
9.46252e-40 0.0040098336 -0.111309916 -0.29453215 -0.19884345 0.14293487 0.09569589 -0.10454412
-0.27084804 -0.45707196 -0.6932576 -0.58743316 -0.45559636 0.008265907 0.013199761 -1.479997e-39
5.9823096e-38 0.0010808518 -0.07844397 -0.12807624 0.23240697 -0.058792964 0.14604075 0.2787972
0.1824948 0.5492482 0.7468422 0.43400055 0.25828877 0.26639146 0.035752628 2.277675e-39
-1.38231e-39 0.0020667685 -0.07375674 -0.031851586 0.33196416 -0.0030367011 0.0691949 -0.26858985
-0.19217998 0.09021959 0.15514065 0.009203677 0.15659617 0.13490048 -0.011930577 -2.7299996e-38
-1.76e-41 -1.545865e-39 -0.044420846 -0.08669434 0.11257605 0.045087293 -0.05302144 -0.07525703
-0.18123402 -0.4063987 -0.077103 0.029669804 0.007821302 0.23415917 0.03248417 -1.157463e-39
5.03267e-40 -1.427786e-39 -0.09485364 -0.010898766 0.1057405 0.214966 -0.068952836 -0.18833433
0.014263642 -0.29943377 -0.11899053 -0.035680134 0.026460487 0.10709863 -0.03799929 2.376747e-39
-7.560557e-38 -0.04002597 0.006740474 0.16080506 0.0019876482 0.17529419 -0.07310939 -0.10759254
-0.042236585 -0.07333508 -0.34205076 0.26219836 -0.0114207305 0.21181455 -0.02264203 2.359383e-39
-2.377848e-39 4.4717138e-38 0.03866345 -0.12588364 0.02490883 0.2545722 -0.036142718 -0.10789851
-0.18852425 0.06796504 -0.11690051 -0.097539894 -0.026268972 -0.03711282 -0.023096347 -7.693e-40
3.7612465e-38 0.0018404997 -0.05271857 -0.039688136 -0.03939205 -0.0717565 -0.1482292 -0.10463166
0.14220469 0.1455017 0.008576307 -0.21380427 0.03978534 -0.097534 0.06782464 5.19139e-40
-1.832414e-39 9.44327e-40 -0.0060844393 -0.017197866 -0.31364563 -0.11827402 0.09309732 0.43198153
0.038949203 -0.4067049 0.024928056 0.01112134 -0.117463954 -0.007641432 9.3142e-40 1.289719e-39
-5.827097e-38 6.872581e-38 -4.612449e-38 3.63016e-40 0.02796273 -0.07027609 0.047055714 0.14435261
0.14645405 0.08980233 -0.010479957 0.004493668 -0.008349438 3.228153e-39 9.41437e-40 2.227717e-39
9.145369e-38 1.682194e-39 -2.297051e-38 5.0208345e-38 -2.97103e-40 -0.007410599 -0.008952828 -0.00018448434
-0.011275218 -0.0044080345 -0.0006309714 -1.03531e-40 -4.71416e-40 6.46724e-40 -2.1132153e-38 -9.84243e-40

fc1.bias f4 [128]
00000000: 6504 6d3e 9fcd b03e 58cc 843e 924b 283e
00000010: 95cc ce3d 3fa9 353e 5ace 933e 115f b33e
00000020: c4e7 c93e 266b 023e cd3e 593e 46d8 953e
00000030: f3ce e83e a1cf 693e 5b4b 263d 7529 7cbd
00000040: 878d dd3d 32ce 5d3e 4d4b db3b bb0d 25bd
00000050: 1cd4 79ba 4fd2 6d3e b319 483e c70f c73e
00000060: c262 8c3d 6b35 4f3d d3a4 8c3e 4bde 303e
00000070: a6cc 20be 0bcf 8a3e fdb2 253e 3dcb 013f
00000080: 2d83 c93e 6b23 db3e 8a88 433e bb90 653e
00000090: e228 003c c3a1 023e da5e 9dbc 596b 943e
000000a0: b282 bb3c 6d6e 543e a23d 273e 6d33 ba3e
000000b0: 66fc b03d 3bc6 8b3e 4e24 043e fa2e 17bd
000000c0: 2c4e babd 1b17 c13d beab 7ebd 3f23 5f3e
000000d0: c9a4 43be 294c b23e 4de5 41be 8f9c 803b
000000e0: 4ef4 91bd a8b6 5f3e 0b62 b63b 7e2d 1f3e
000000f0: b971 ad3d 87dd 8a3e e119 a13e 6e7a 423e
00000100: 81cf 4a3e 9103 f03d 8b9d a63e 3c55 123c
00000110: e388 ed3c 4ad2 05bd 2574 6c3e 5b42 b23d
00000120: fd1b 0fbd 845d b93e a02a ac3e 5d9d a1bd
00000130: 0905 c1bc 0a1b 5e3d 29ab 5c3e 8045 fbbd
00000140: df3d 1ebc a90d 953e 4561 32bc 57bd c03e
00000150: 4891 093d 8d90 0e3d bbde 11bd b89f 2b3d
00000160: ca41 86bd a048 c13b 1471 883e cbc2 f63d
00000170: 23f0 193e d5af 083e fe59 723e b1d4 c23e
00000180: 0c7d 703e 4235 b23e 6d1e 3c3e 2aed ce3c
00000190: de11 103e ef60 31bd 4a06 8f3e 679d 713d
000001a0: b378 cd3e 7c7c 343e 214e 133e d13e a83e
000001b0: e090 6b3d 9fe0 183e 2ff0 4d3e 115c 573e
000001c0: 90c2 6a3d 83ea 0e3e ed13 d03c 3126 81bd
000001d0: 486b b83d b34f 093e 5239 453e 0329 d73e
000001e0: d6c0 d03d 66bb 863d d14d 9ebd a958 613e
000001f0: 8e07 c93e 9f90 3c3e 8a17 c33e 5db5 0bbe
0.23146208 0.34531876 0.25937152 0.16435078 0.10097615 0.17740344 0.2886837 0.35033467
0.39434636 0.12736186 0.21215363 0.29266566 0.4547039 0.2283311 0.04059921 -0.061562974
0.1081801 0.21660689 0.006692326 -0.040296298 -0.0009530203 0.23224758 0.19541053 0.38879225
0.06854774 0.050588053 0.274695 0.17272298 -0.15703067 0.27111086 0.1618156 0.5070074
0.39357892 0.4280046 0.19095054 0.22418492 0.007822247 0.1275702 -0.019210268 0.2898815
0.022889469 0.20745249 0.16332105 0.3636736 0.08641891 0.27299675 0.12904474 -0.036910035
-0.09096941 0.09428235 -0.062175505 0.21790789 -0.1910583 0.3482373 -0.18935128 0.0039249132
-0.071266755 0.21847022 0.005565887 0.15544698 0.084689565 0.27122137 0.31465057 0.18992016
0.19805719 0.1171943 0.3254207 0.008931454 0.028995937 -0.03267125 0.2309118 0.087040626
-0.0349388 0.3620416 0.3362627 -0.07891343 -0.023561971 0.054225005 0.21549667 -0.122691154
-0.009658306 0.29111984 -0.010887449 0.37644455 0.033585817 0.034805823 -0.035612803 0.041900367
-0.06555517 0.00589855 0.26648772 0.120488726 0.15033011 0.13348325 0.23667142 0.38052896
0.23485202 0.34806257 0.18370982 0.025259573 0.14069316 -0.043305334 0.27934486 0.058988
0.4013115 0.17625612 0.14385273 0.32860425 0.05751121 0.14929436 0.20111154 0.21031214
0.057314456 0.13956647 0.025400126 -0.063061126 0.09004837 0.13409309 0.19260147 0.42023477
0.101930305 0.06578712 -0.07729686 0.22006477 0.39263576 0.18414544 0.38103896 -0.13643403

fc2.weight f4 [10, 128]
00000000: 006f a03d 14fb cc3d d49e 893e 6d3d cabe
00000010: a99b 3cbf 34ae 8d3e 418c 053f 9c32 cf3e
00000020: 7904 49bf 3970 043e 5a0f 76bd df68 7cbf
00000030: f107 463f b8a8 65bf c8a7 983e e05b 5b3e
00000040: 454f 7f3e 7fb0 1c3e 0336 07bf 06bd b93d
00000050: 2476 d6be 1c90 5dbe 4c34 9d3b 0f01 fbbe
00000060: 7c4a aabe 53d9 373e c1d6 2d3e 38af bd3e
00000070: 1037 f63e 5382 0bbe a4ba 52bf 3e63 8a3e
00000080: 57a5 38bf 3b0d b93e 4144 f63b 097a 06bf
00000090: 8f08 3e3e 65d9 213e f019 d63e 6a3b 68bf
000000a0: ef49 25bf db32 09bf 51e5 94be d248 7f3d
000000b0: 07c4 113e 6ca1 1dbf 8c42 293d 2528 b4be
000000c0: ac02 dc3e 6425 b7be bfa5 b73e 9969 1d3f
000000d0: e36e dc3d 34e5 2fbf 649d 28bf f37d 3b3f
000000e0: 1367 bcbe 4ece 093f 3bf1 f5be 16a7 99bf
000000f0: e1f0 d43e 4320 5cbe 5054 cd3e 050f c43d
00000100: b589 50bf 562e 853c 545f 0fbf 1b29 fabe
00000110: f127 233e 646f 5bbf afdb d03e b553 bd3e
00000120: aaec debb c40f d5be 1ae0 9e3e ee35 c7bd
00000130: 2a3e c03e b97d 05bc 70bd bf3e 5702 07bf
00000140: 9b7f 85bf c24f 193f 68a2 84be 51d7 3abf
00000150: 2792 123e 1301 dcbe 8e01 803e eba2 c33c
00000160: 7eda 80bf bd2d 93be 03d1 893e aece bcbe
00000170: c78c 99bf 93f9 003f 6d69 06be 4cb8 82bf
00000180: 70e6 233f 75d2 c63d 8930 1f3f ba05 653e
00000190: 2832 903e e774 85bf 5993 23bf 6b57 9abe
000001a0: 3168 213f 8cbc d7bd 9274 16bd 033c b13d
000001b0: 77d5 d3be 8f90 c9be 2460 19bf d6d2 183e
000001c0: 86af 2c3f dc13 2e3e f343 87be d245 54bf
000001d0: 4b4c 1b3e 74db bc3e 03fa 2a3f 7c5f cb3d
000001e0: cd7d 44bf 3b3c 903c 1bad 10bf ab83 68bf
000001f0: 5c02 33bf e9ce 67bf e778 533f 63b5 30be
00000200: db6c 7cbf b613 eb3e 57cf 7dbe d9c9 9fbe
00000210: 9db8 1dbe fb5e 13bf 6eb7 543e b373 0bbe
00000220: f9ad 40bf 8dae 64be d3d9 f73d b587 c13d
00000230: f781 12bf ffba 5bbf d9e1 243d 1e41 78bf
00000240: bbc9 1b3f 20af 943e d51d 923e 9a47 13bf
00000250: 5b25 183f 3ca8 cdbd d861 ea3e 3cfe bb3f
00000260: 84d0 4b3f 7450 4ebf b663 a7be 88e0 8e3e
00000270: 2fda 97bd e45b 923e c6a3 a7be 84f9 41bd
00000280: 97c6 e63e 51c4 26bf 718c 0e3f 2b2b 023f
00000290: 65c8 2bbf 7d44 88bf 222a 99bf 3cc4 6b3f
000002a0: eecf 963e cbb4 2dbf 43e4 72bd 9d7b 243f
000002b0: bf02 6c3e 5397 273e 35c8 a93f e965 893d
000002c0: 6899 6abf f32e 0b3e 86f6 a2be 5a04 3e3f
000002d0: c4f5 36be 1bb3 3a3f 7569 5ebf edb8 8cbf
000002e0: b17b 4dbd 21e1 90bd 9204 aebf 533a 8cbf
000002f0: d893 0b3f c8bf b33e ed49 3dbe 1642 2fbf
00000300: 85f2 03bf 4c74 d6be e01e 83bf 512e 4e3f
00000310: 3c8a 7bbe c97f 583e 7256 adbe 990b 3dbf
00000320: 57df 16be b426 203f cb67 09be d317 a6be
00000330: 6f53 1cbf 2a33 173f dca4 afbe cef8 89be
00000340: 7518 f53d ea3a dcbd afa4 2bbf 9669 ab3e
00000350: 72c3 c1be a05e ecbe b0af 0cbf 07ca a2bd
00000360: 151a e93e 1ce8 2dbf 94d9 0bbf 348b a03e
00000370: 2841 42bd 803c 0bbc 79fe d53e b168 72bd
00000380: f096 5b3d d358 53bf 0179 10bf 1b77 5bbf
00000390: c5a7 38bf 4f70 00bf 8357 2fbf 9331 9fbe
000003a0: e400 db3e ea1e 80bf 6bdf bc3e 73e1 403f
000003b0: 533d 6fbc 8c15 3dbe e510 43be 5846 abbe
000003c0: abbd cfbe cf79 e23d 4f71 2e3d 96b3 18bd
000003d0: 5c7b 593a 7d78 14bf a6d1 82bf 1fb0 243e
000003e0: b8b7 66bf b0db 87be 7ed5 e6bd e9d6 cf3e
000003f0: a569 f53c b185 e4be 2a91 6a3f bc6b d2be
0.078336716 0.10008827 0.2687899 -0.3949999 -0.7367502 0.2767197 0.52167135 0.404683
-0.7852245 0.12933435 -0.060073234 -0.9859752 0.7735587 -0.8971057 0.29815507 0.21421766
0.24932583 0.15301703 -0.5281679 0.090692565 -0.4188701 -0.21637005 0.004797494 -0.49024245
-0.33259952 0.17953996 0.16976453 0.37047744 0.48088884 -0.13623933 -0.8231604 0.2702884
-0.7212729 0.36142907 0.0075154607 -0.5252996 0.18557952 0.15805586 0.41816664 -0.9071566
-0.6456594 -0.53593224 -0.29081205 0.062325306 0.14234935 -0.61574435 0.04132323 -0.35186878
0.42970788 -0.35770714 0.35868642 0.61489254 0.107633375 -0.6870911 -0.6586516 0.7323906
-0.3679739 0.5383042 -0.48035607 -1.2004116 0.41590026 -0.21496682 0.40103388 0.09573177
-0.81460124 0.016257446 -0.56004834 -0.48859486 0.15933205 -0.85716844 0.40792605 0.36977926
-0.006803115 -0.4161359 0.3103035 -0.09727083 0.37547427 -0.00814765 0.37449217 -0.52737945
-1.0429567 0.59887326 -0.25905156 -0.72984797 0.14313565 -0.4296957 0.25001186 0.023881396
-1.0066679 -0.28745833 0.26917276 -0.36876434 -1.1996087 0.5038082 -0.13126154 -1.0212493
0.64023495 0.0970811 0.62183434 0.22365466 0.28163266 -1.0426301 -0.6389671 -0.3014482
0.6304961 -0.10534009 -0.036732264 0.086540245 -0.41373798 -0.39368102 -0.59912324 0.14924178
0.6745533 0.16999763 -0.2641903 -0.8291904 0.15165822 0.3688618 0.6678774 0.099303216
-0.76754457 0.017606845 -0.5651414 -0.9082591 -0.69925475 -0.90550095 0.8260636 -0.17256694
-0.986036 0.45913476 -0.24786125 -0.31208685 -0.15402456 -0.57566804 0.20773098 -0.13618354
-0.7526546 -0.22332211 0.121020935 0.09449712 -0.5722956 -0.8583221 0.040254448 -0.9697436
0.6085469 0.2903986 0.28538385 -0.5753113 0.59432 -0.10041854 0.45777774 1.4686961
0.79615045 -0.8059151 -0.3269326 0.2790568 -0.07414662 0.28585732 -0.32742137 -0.047357097
0.45073387 -0.65143305 0.55683047 0.5084712 -0.6710265 -1.0645901 -1.1965983 0.92096305
0.29455513 -0.67853993 -0.05929972 0.6425112 0.23047923 0.1636632 1.3264223 0.06708891
-0.9164033 0.13592128 -0.31828707 0.7422539 -0.1786719 0.72929543 -0.86879665 -1.0993935
-0.05016679 -0.0707419 -1.3595145 -1.0955299 0.54522467 0.35107255 -0.18485232 -0.68460214
-0.5154193 -0.41885602 -1.0243797 0.80539423 -0.24564451 0.21142496 -0.33855015 -0.7384582
-0.14733635 0.62559056 -0.134185 -0.3244005 -0.6106481 0.59062445 -0.34305465 -0.26947635
0.119675554 -0.107534245 -0.6704816 0.33478993 -0.37844425 -0.46165943 -0.5495558 -0.0794869
0.45527712 -0.67932296 -0.5462887 0.31356204 -0.04742542 -0.008498311 0.4179571 -0.059181873
0.053610742 -0.8255741 -0.5643464 -0.85728616 -0.72130996 -0.5017137 -0.6849291 -0.3109251
0.42774117 -1.0009434 0.36889204 0.7534401 -0.014602023 -0.1846525 -0.19049414 -0.33452106
-0.40574393 0.110583894 0.04258853 -0.03728064 0.0008296275 -0.5799635 -1.022023 0.1608281
-0.9012408 -0.26534796 -0.11271189 0.4059365 0.029957602 -0.44633248 0.9162775 -0.4109782

fc2.bias f4 [10]
00000000: a914 43bd f32b a73c 0448 c4bd f36e a6bd
00000010: 3aee cdbc 83e7 86bd eec2 163e e230 a1be
00000020: 03ea 9f3e 523a f33d
-0.047627125 0.020406699 -0.095840484 -0.08126631 -0.02513801 -0.06587126 0.14722797 -0.31482607
0.31233224 0.11876358
